smallcnn_224_best.tflite (tflite, 184964 bytes, 56 tensors)

model/separable_conv2d/separable_conv2d/Cast f2 [3, 3, 3, 1]
00000000: bb2e 4d25 5ba5 ed31 87b1 b030 9d32 8fb3
00000010: 8a31 64ad 0ab2 57af 6e32 b92a 5027 bc30
00000020: 70b1 5316 99b2 18b2 cdb5 ab2d 3935 3fb3
00000030: 282d 7ea0 02a6
0.10516 0.0207 -0.02092 0.1852 -0.1727 0.1465 0.2067 -0.2362
0.1731 -0.0842 -0.1887 -0.1147 0.2009 0.05252 0.02856 0.148
-0.1699 0.001544 -0.2062 -0.1904 -0.3625 0.08856 0.3264 -0.2264
0.08057 -0.00877 -0.02347

model/separable_conv2d/separable_conv2d/Cast_1 f2 [1, 1, 3, 32]
00000000: 9f33 2800 ad26 5f13 862c f8b0 722e 0080
00000010: 67ab dfac 3ca4 0080 8927 ea2a 431c 2fb4
00000020: b929 5421 5aac 0000 0000 fd2e e224 5434
00000030: 062e 5031 36a1 0080 b124 bf2a 25ae 50a4
00000040: dc2c 0600 e8ac 41a6 76ae 5cb1 39b2 0080
00000050: 409f d317 33a0 0000 8d2d 8130 a8a7 a4ab
00000060: bcac a1ac be2c 0000 0000 49ab 932c db2c
00000070: b12a dd30 e92b 0080 412e 09b2 69b0 cd25
00000080: fca0 0100 6fa2 97aa 0c2c 49b3 8234 0000
00000090: 60aa caa0 7026 0000 9d31 28aa ed1f 79b3
000000a0: 1f2d 44a0 b8ac 0000 0000 97af d3ad 5730
000000b0: 522f 70ab 01b4 0000 6bae cf33 35b0 aeae
0.2382 2.4e-06 0.02608 0.0009 0.0707 -0.1553 0.1007 -0.0
-0.05783 -0.0761 -0.01654 -0.0 0.02943 0.05402 0.00416 -0.2615
0.0447 0.01041 -0.068 0.0 0.0 0.1092 0.01907 0.2705
0.0941 0.166 -0.01018 -0.0 0.01833 0.0527 -0.096 -0.01685
0.0759 3.6e-07 -0.07666 -0.02443 -0.10095 -0.1675 -0.1945 -0.0
-0.00708 0.00191 -0.0082 0.0 0.08673 0.1407 -0.0299 -0.0597
-0.074 -0.0723 0.0741 0.0 0.0 -0.05692 0.0715 0.07587
0.05228 0.152 0.0618 -0.0 0.0977 -0.1886 -0.1378 0.02266
-0.009735 6e-08 -0.012566 -0.05148 0.06323 -0.2277 0.2817 0.0
-0.0498 -0.00935 0.02515 0.0 0.1754 -0.0481 0.00774 -0.2335
0.08 -0.00833 -0.0737 0.0 0.0 -0.1186 -0.091 0.1356
0.1144 -0.0581 -0.2502 0.0 -0.1003 0.244 -0.1315 -0.1044

model/separable_conv2d_7/separable_conv2d/Cast f2 [3, 3, 128, 1]
00000000: d79e 6722 0080 0080 0080 0000 0000 0080
00000010: 0000 89a7 0080 0080 0000 0000 0000 0080
00000020: 0000 0000 f927 1d1d c023 0000 0000 0000
00000030: d124 0080 0080 0000 0000 0000 51a6 eea2
00000040: 0080 0000 0080 0080 e8a2 0000 0080 0000
00000050: 0080 0080 0000 5c9f 0000 a0aa 0b97 0080
00000060: 0080 6212 65a4 43a4 0000 0322 0080 0080
00000070: d991 0080 0000 0000 0080 0000 0000 0000
00000080: 0000 0000 0080 eaa9 0080 0080 0000 0000
00000090: 0080 4424 0080 0000 0080 0080 0000 0000
000000a0: c401 0080 0080 0000 0000 0080 0080 0080
000000b0: 0080 0080 0080 0000 0000 0000 9f27 0000
000000c0: 0080 0080 2028 0080 0000 0080 0000 0080
000000d0: 0080 0080 0000 992b 0000 0080 b1aa 0000
000000e0: 0080 de0a 0080 0000 0080 0627 0000 3015
000000f0: 0000 0000 0080 0000 0080 0000 0080 0000
00000100: b51c c8a4 0080 0000 0080 0080 0080 0000
00000110: 0080 6ea0 0080 0000 0000 0000 0000 0080
00000120: 0000 0000 9f95 142b 03a8 0080 0080 0080
00000130: ad1d 0000 0000 0080 0000 0080 d3a8 6197
00000140: 0000 0000 0080 0080 52a5 0080 0080 0000
00000150: 0080 0080 0080 1098 0000 2297 b7ab 0080
00000160: 0000 ec92 3425 7da8 0080 3624 0000 0000
00000170: b50f 0080 0000 0000 0000 0000 0080 0080
00000180: 0000 0080 0000 f5a9 0080 0080 0080 0000
00000190: 0080 5525 0080 0080 0000 0000 0080 0000
000001a0: 4681 0000 0080 0080 0080 0080 0000 0000
000001b0: 0000 0080 0080 0000 0080 0080 0918 0080
000001c0: 0000 0000 2028 0080 0180 0080 0000 0000
000001d0: 0080 0000 0080 2421 0080 0080 6da6 0080
000001e0: 0080 d31c 0000 0080 0000 8b25 0080 b08d
000001f0: 0000 0080 0000 0000 0000 0080 0080 0080
-0.00668 0.012505 -0.0 -0.0 -0.0 0.0 0.0 -0.0
0.0 -0.02943 -0.0 -0.0 0.0 0.0 0.0 -0.0
0.0 0.0 0.03114 0.004993 0.01514 0.0 0.0 0.0
0.01881 -0.0 -0.0 0.0 0.0 0.0 -0.02467 -0.013535
-0.0 0.0 -0.0 -0.0 -0.01349 0.0 -0.0 0.0
-0.0 -0.0 0.0 -0.007187 0.0 -0.05176 -0.001719 -0.0
-0.0 0.000779 -0.01717 -0.01665 0.0 0.01174 -0.0 -0.0
-0.000714 -0.0 0.0 0.0 -0.0 0.0 0.0 0.0
0.0 0.0 -0.0 -0.0462 -0.0 -0.0 0.0 0.0
-0.0 0.01666 -0.0 0.0 -0.0 -0.0 0.0 0.0
2.694e-05 -0.0 -0.0 0.0 0.0 -0.0 -0.0 -0.0
-0.0 -0.0 -0.0 0.0 0.0 0.0 0.02977 0.0
-0.0 -0.0 0.03223 -0.0 0.0 -0.0 0.0 -0.0
-0.0 -0.0 0.0 0.05936 0.0 -0.0 -0.05228 0.0
-0.0 0.0002096 -0.0 0.0 -0.0 0.02744 0.0 0.0012665
0.0 0.0 -0.0 0.0 -0.0 0.0 -0.0 0.0
0.004597 -0.01868 -0.0 0.0 -0.0 -0.0 -0.0 0.0
-0.0 -0.00865 -0.0 0.0 0.0 0.0 0.0 -0.0
0.0 0.0 -0.001372 0.0553 -0.03134 -0.0 -0.0 -0.0
0.005543 0.0 0.0 -0.0 0.0 -0.0 -0.0377 -0.0018015
0.0 0.0 -0.0 -0.0 -0.02078 -0.0 -0.0 0.0
-0.0 -0.0 -0.0 -0.001984 0.0 -0.001741 -0.06027 -0.0
0.0 -0.000845 0.02032 -0.03506 -0.0 0.01645 0.0 0.0
0.0004704 -0.0 0.0 0.0 0.0 0.0 -0.0 -0.0
0.0 -0.0 0.0 -0.04654 -0.0 -0.0 -0.0 0.0
-0.0 0.02083 -0.0 -0.0 0.0 0.0 -0.0 0.0
-1.943e-05 0.0 -0.0 -0.0 -0.0 -0.0 0.0 0.0
0.0 -0.0 -0.0 0.0 -0.0 -0.0 0.00197 -0.0
0.0 0.0 0.03223 -0.0 -6e-08 -0.0 0.0 0.0
-0.0 0.0 -0.0 0.01004 -0.0 -0.0 -0.0251 -0.0
-0.0 0.00471 0.0 -0.0 0.0 0.02165 -0.0 -0.0003471
0.0 -0.0 0.0 0.0 0.0 -0.0 -0.0 -0.0

model/separable_conv2d_7/separable_conv2d/Cast_1 f2 [1, 1, 128, 128]
00000000: 6c92 6690 8609 7c90 fd91 b596 6c91 770c
00000010: 6084 568e b109 178d 108d ca14 1911 0c80
00000020: 5204 f494 7e04 4914 2d01 5c10 c50b 4989
00000030: b710 e48d 3a11 129c 208b 4787 220c 2f8e
00000040: 1a86 ff02 cd98 6b95 0d99 0a95 390d fa94
00000050: 4194 4d91 4c12 5018 550c 6f8d 1a99 a909
00000060: dd10 4590 2681 e016 c394 4e83 068a fb90
00000070: 5f11 0d98 2e8f 2596 228e 7308 9116 bf05
00000080: 6480 1b89 2d07 7e94 0c97 7892 c60f 6890
00000090: fb0e 3498 cf0d 0394 698a 598c 1293 2d00
000000a0: 9989 ba02 4d94 970d 6810 0000 c898 b491
000000b0: 8c02 e305 0b03 9f84 8806 a781 7581 a495
000000c0: 8b97 0205 280a 5795 fe84 3983 f00c 5397
000000d0: d003 0000 4a00 4f96 4c96 e70e 2990 2d0c
000000e0: 8814 8e07 3b8a 520e a598 0e89 5092 980b
000000f0: 380a 3885 5609 5d0b ba11 4093 2f98 2899
00000100: d29c 5617 a61d bb9f 1ba0 b91f a99b 0416
00000110: f620 021b f424 c98f e021 699f 2021 bf22
00000120: 590c a221 db1e 721d 659d dc20 7424 f89d
00000130: e518 0494 3220 a311 1d22 9a1e 7523 9b21
00000140: 06a3 2524 f79b 631d 691e ca9f 4a9a f19a
00000150: bf98 2498 f320 1f98 731e 861f 31a4 7020
00000160: 9b23 7422 759f 6720 0981 669f e79a 8319
00000170: b424 9824 9321 4193 3826 3a1e 0015 2e1d
00000180: 619b 2b1b 109a d722 089e f11e f71c 891d
00000190: 5a10 761f 0d1b 6e1f b523 50a0 3326 bd1c
000001a0: 3911 1023 72a1 029e 851c 0300 001e 571d
000001b0: 1d1b 2e1c ba1a 5517 249c b91c da9e c3a0
000001c0: c09d 691f 7b09 69a1 229c e6a1 131e ae1a
000001d0: ff19 0080 c01b 141c 0e95 aa9e d499 d521
000001e0: 0ba3 9e20 809c a490 cb15 6b99 551f e21f
000001f0: 2810 a91e 4b1e 2620 a41c a324 6295 3498
-0.000784 -0.000537 0.0001686 -0.0005474 -0.000731 -0.001637 -0.000662 0.0002725
-6.676e-05 -0.0003867 0.0001737 -0.0003107 -0.000309 0.001169 0.0006223 -7e-07
6.59e-05 -0.001209 6.855e-05 0.001046 1.794e-05 0.000532 0.0002371 -0.0001613
0.0005755 -0.0003595 0.000638 -0.003975 -0.0002174 -0.00011104 0.0002522 -0.0003774
-9.31e-05 4.57e-05 -0.002344 -0.001323 -0.002466 -0.00123 0.0003188 -0.001215
-0.001039 -0.000647 0.0007687 0.002106 0.0002644 -0.0003316 -0.002491 0.0001727
0.0005937 -0.000521 -1.75e-05 0.001678 -0.001163 -5.04e-05 -0.0001838 -0.000608
0.0006557 -0.001978 -0.0004382 -0.0015 -0.0003743 0.0001358 0.001603 8.77e-05
-5.96e-06 -0.0001558 0.0001095 -0.001097 -0.00172 -0.0007896 0.0004745 -0.000538
0.000426 -0.002052 0.0003545 -0.000979 -0.0001956 -0.0002654 -0.000863 2.7e-06
-0.0001708 4.16e-05 -0.00105 0.0003412 0.000538 0.0 -0.002335 -0.000696
3.886e-05 8.98e-05 4.643e-05 -7.05e-05 9.966e-05 -2.52e-05 -2.223e-05 -0.001377
-0.001842 7.64e-05 0.0001879 -0.001304 -7.62e-05 -4.92e-05 0.0003014 -0.001788
5.82e-05 0.0 4.4e-06 -0.00154 -0.001537 0.0004213 -0.000508 0.0002549
0.001106 0.0001153 -0.0001901 0.0003858 -0.002268 -0.0001543 -0.0007706 0.0002317
0.0001898 -7.963e-05 0.0001628 0.0002247 0.000699 -0.000885 -0.002043 -0.002518
-0.004707 0.001791 0.005516 -0.00755 -0.00802 0.00754 -0.00374 0.001469
0.00969 0.003422 0.01935 -0.0004752 0.011475 -0.007236 0.01001 0.013176
0.0002654 0.011 0.006695 0.005318 -0.00527 0.00949 0.0174 -0.00583
0.00239 -0.00098 0.008194 0.000688 0.01194 0.006447 0.014565 0.01095
-0.01372 0.01619 -0.00389 0.00526 0.00626 -0.007607 -0.00307 -0.00339
-0.002317 -0.002022 0.00967 -0.002012 0.006298 0.007347 -0.01637 0.00867
0.014854 0.0126 -0.007282 0.0086 -1.58e-05 -0.007225 -0.00337 0.002691
0.01837 0.01794 0.01089 -0.0008855 0.02429 0.00608 0.001221 0.00506
-0.003603 0.0035 -0.00296 0.01336 -0.00589 0.00678 0.00485 0.005405
0.000531 0.007286 0.003443 0.007256 0.01505 -0.00842 0.02422 0.004627
0.0006375 0.013794 -0.010635 -0.005867 0.004414 2e-07 0.00586 0.005215
0.003473 0.00408 0.003284 0.00179 -0.004044 0.004612 -0.00669 -0.0093
-0.005615 0.007236 0.0001673 -0.01057 -0.004036 -0.01152 0.00593 0.003262
0.002928 -0.0 0.003784 0.003983 -0.001234 -0.006508 -0.002846 0.01139
-0.013756 0.00902 -0.004395 -0.0005665 0.001414 -0.002645 0.00716 0.007698
0.0005074 0.006504 0.006145 0.0081 0.00453 0.01811 -0.001314 -0.002052

model/separable_conv2d_6/separable_conv2d/Cast f2 [3, 3, 96, 1]
00000000: 8f2c f027 151e a0a9 2daa a426 31a9 58a7
00000010: 31a6 72aa 759e c1a9 0000 4ca0 0080 df2a
00000020: 91a8 1828 6a2a 1ea6 382b 0299 93aa 83a6
00000030: 0080 0000 972c e424 75ac 2ca0 ea1d 4fa9
00000040: a72b dba5 4827 6190 3028 3024 45a9 c927
00000050: 7824 aa23 3a25 5caa 08ae 07aa 3925 9f27
00000060: 4c28 92a9 c39b 9e2c ecab e1a4 dba4 0821
00000070: 591e 0000 0080 0080 0080 7ca8 dcab 0080
00000080: 181c 85ad 8f1a 0000 df29 f12b 9322 0ba8
00000090: 7522 47a0 ed80 04a2 f222 9923 1aa6 0080
000000a0: 5929 1d1e 1294 caa0 5bac 0080 01ac 4fac
000000b0: 86a7 6e2c 6a2b 5829 0080 a6a2 9e27 2729
000000c0: e1a4 ee1b 4fa8 e7aa 6128 5220 74a6 afa6
000000d0: 90aa 539c 41a5 ae26 0000 dfa5 0000 eba4
000000e0: 03aa e628 bc26 9a27 c02a 5395 49a5 a5a5
000000f0: 0080 0000 492b 2d28 20ac a19c 04aa 4aaa
00000100: 442a cb20 6f24 4e17 b79b 5523 9fa8 7327
00000110: ef20 322a ba2a 4ba5 06ad 77a4 3e2b 1628
00000120: dc23 f125 f5a8 f32a a4ac 7eaa 8caa d4a5
00000130: 7c21 0000 0080 0000 0080 d221 5ea8 0080
00000140: 0d88 b5a5 43a4 0080 d728 dd2a b19a d5a4
00000150: c8ab f10f 139f 7aa7 05a8 5d28 84a5 0080
00000160: 3e29 ee20 59a3 6ea5 47a6 0080 a0ad c8aa
00000170: c0ac 7fa8 b72c c128 0000 c5a6 9327 b4a5
00000180: 0fa6 4bab 3a9f 82a6 0620 fe24 44a7 a513
00000190: e9aa d225 45a5 c029 0000 a999 0000 5929
000001a0: 64aa 7f29 082c 5427 2025 b223 33aa 33ad
000001b0: 0080 0080 222c 0327 5ca2 e69c 5eaa ebad
000001c0: 222c 5b27 8f24 0aa9 ba9a 7d24 2d9b 5c2c
000001d0: a81d 0923 1728 62ac f427 06ad 372c 412a
000001e0: c32b 912c 60a9 a91e 4fae 0ea9 18ac 31a4
000001f0: c3a1 0000 0000 0080 0080 3c28 77aa 0080
0.0712 0.031 0.00594 -0.04395 -0.04825 0.02594 -0.04056 -0.02869
-0.02419 -0.05035 -0.006306 -0.04495 0.0 -0.00839 -0.0 0.05368
-0.03568 0.03198 0.0501 -0.0239 0.0564 -0.002445 -0.05136 -0.02544
-0.0 0.0 0.0717 0.0191 -0.06964 -0.00815 0.005775 -0.04147
0.05978 -0.02287 0.02844 -0.0005345 0.0327 0.01636 -0.04117 0.03041
0.01746 0.01497 0.02042 -0.04968 -0.09424 -0.0471 0.0204 0.02977
0.03357 -0.04352 -0.00379 0.07214 -0.0619 -0.01906 -0.01897 0.00983
0.0062 0.0 -0.0 -0.0 -0.0 -0.03503 -0.0614 -0.0
0.003998 -0.08624 0.003202 0.0 0.04587 0.06204 0.01284 -0.0316
0.01261 -0.008354 -1.41e-05 -0.01175 0.013565 0.01484 -0.02383 -0.0
0.04178 0.00597 -0.000994 -0.00935 -0.06805 -0.0 -0.06256 -0.0673
-0.02939 0.0692 0.05792 0.04175 -0.0 -0.012985 0.02975 0.04025
-0.01906 0.003872 -0.03366 -0.05392 0.0342 0.00844 -0.0252 -0.02611
-0.05127 -0.004223 -0.02052 0.0261 0.0 -0.02293 0.0 -0.01921
-0.04697 0.03827 0.0263 0.0297 0.05273 -0.0013 -0.02065 -0.02205
-0.0 0.0 0.05692 0.03262 -0.06445 -0.00452 -0.047 -0.04913
0.04895 0.00936 0.01732 0.001783 -0.003767 0.01432 -0.0361 0.0291
0.009636 0.0484 0.05255 -0.02068 -0.0785 -0.01744 0.05658 0.03192
0.01535 0.02321 -0.03873 0.0543 -0.0725 -0.05072 -0.05115 -0.02277
0.01071 0.0 -0.0 0.0 -0.0 0.01137 -0.03412 -0.0
-0.0001236 -0.0223 -0.01665 -0.0 0.0378 0.05362 -0.003267 -0.01888
-0.0608 0.0004847 -0.00691 -0.0292 -0.0314 0.0341 -0.02155 -0.0
0.04095 0.00963 -0.01435 -0.02121 -0.02452 -0.0 -0.0879 -0.05298
-0.0742 -0.03513 0.07367 0.03714 0.0 -0.02644 0.02959 -0.02228
-0.02367 -0.05698 -0.007057 -0.02542 0.00786 0.0195 -0.02838 0.000933
-0.054 0.02274 -0.02058 0.04492 0.0 -0.002764 0.0 0.04178
-0.04993 0.04294 0.063 0.02863 0.02002 0.01503 -0.04843 -0.08124
-0.0 -0.0 0.0646 0.02739 -0.01242 -0.004784 -0.04974 -0.09247
0.0646 0.02873 0.0178 -0.03937 -0.003284 0.01753 -0.003504 0.0681
0.005524 0.01374 0.03195 -0.0685 0.03107 -0.0785 0.06586 0.04886
0.06064 0.07135 -0.042 0.006504 -0.0986 -0.0395 -0.06396 -0.01637
-0.01125 0.0 0.0 -0.0 -0.0 0.03308 -0.0505 -0.0

model/separable_conv2d_6/separable_conv2d/Cast_1 f2 [1, 1, 96, 128]
00000000: 1293 e99b 0000 0080 0000 0000 0000 0080
00000010: 0080 81a0 0000 0080 0080 0080 0000 0000
00000020: 0080 0000 c5a0 5fa1 a62b 0000 0080 0080
00000030: 0028 0000 0080 0000 0080 0080 e92a fc22
00000040: 0080 0000 0080 0000 e8a0 0080 0000 0080
00000050: 0080 0080 0000 342c 0080 0ea8 eaa6 0080
00000060: 0000 3000 382b ba22 0000 041f 0000 0000
00000070: 0680 0080 0080 0080 0000 0000 0000 0000
00000080: 0000 0080 0000 4797 0000 0080 0080 0080
00000090: 0000 9aa5 0080 0080 0000 0000 0000 0000
000000a0: 0080 0080 0000 0000 0080 0080 0000 0000
000000b0: 0080 0000 0000 0080 0080 0080 af24 0000
000000c0: 0080 0000 7428 0080 0080 0000 0080 0000
000000d0: 0080 0080 0080 f1a4 0080 0080 d928 0000
000000e0: 0000 6881 0000 0000 0000 daa6 0000 2913
000000f0: 0080 0080 0080 0000 0000 0000 0080 0080
00000100: e58c 6420 0080 0000 0000 0000 0080 0080
00000110: 0000 0b25 0000 0080 0080 0000 0000 0080
00000120: 0080 0080 ce29 53a6 3e24 0080 0080 0080
00000130: 59a8 0000 0080 0080 0080 0080 76a7 eea1
00000140: 0080 0080 0080 0080 b813 0000 0000 0080
00000150: 0080 0080 0000 dca8 0080 a829 3b28 0080
00000160: 0080 2484 e8a6 a8a1 0080 54a4 0080 0000
00000170: 0200 0080 0080 0000 0080 0000 0080 0000
00000180: 0000 0000 0080 b3ab 0080 0080 0080 0080
00000190: 0080 401f 0080 0080 0000 0000 0080 0000
000001a0: 0080 0000 0080 0000 0080 0080 0080 0000
000001b0: 0080 0000 0080 0000 0080 0000 d8a8 0080
000001c0: 0000 0000 82a6 0080 0080 0000 0080 0000
000001d0: 0080 0000 0000 40a7 0080 0000 76a9 0000
000001e0: 0080 3509 0000 0000 0080 f623 0000 4489
000001f0: 0000 0000 0080 0080 0000 0000 0000 0080
-0.000863 -0.003862 0.0 -0.0 0.0 0.0 0.0 -0.0
-0.0 -0.0088 0.0 -0.0 -0.0 -0.0 0.0 0.0
-0.0 0.0 -0.009315 -0.01049 0.05975 0.0 -0.0 -0.0
0.03125 0.0 -0.0 0.0 -0.0 -0.0 0.054 0.01364
-0.0 0.0 -0.0 0.0 -0.00958 -0.0 0.0 -0.0
-0.0 -0.0 0.0 0.0657 -0.0 -0.03168 -0.02701 -0.0
0.0 2.86e-06 0.0564 0.01314 0.0 0.00685 0.0 0.0
-3.6e-07 -0.0 -0.0 -0.0 0.0 0.0 0.0 0.0
0.0 -0.0 0.0 -0.001777 0.0 -0.0 -0.0 -0.0
0.0 -0.02188 -0.0 -0.0 0.0 0.0 0.0 0.0
-0.0 -0.0 0.0 0.0 -0.0 -0.0 0.0 0.0
-0.0 0.0 0.0 -0.0 -0.0 -0.0 0.0183 0.0
-0.0 0.0 0.0348 -0.0 -0.0 0.0 -0.0 0.0
-0.0 -0.0 -0.0 -0.0193 -0.0 -0.0 0.03787 0.0
0.0 -2.146e-05 0.0 0.0 0.0 -0.02676 0.0 0.000874
-0.0 -0.0 -0.0 0.0 0.0 0.0 -0.0 -0.0
-0.0002987 0.008575 -0.0 0.0 0.0 0.0 -0.0 -0.0
0.0 0.0197 0.0 -0.0 -0.0 0.0 0.0 -0.0
-0.0 -0.0 0.04535 -0.0247 0.01657 -0.0 -0.0 -0.0
-0.03397 0.0 -0.0 -0.0 -0.0 -0.0 -0.02914 -0.01158
-0.0 -0.0 -0.0 -0.0 0.000942 0.0 0.0 -0.0
-0.0 -0.0 0.0 -0.03796 -0.0 0.0442 0.03305 -0.0
-0.0 -6.32e-05 -0.02698 -0.01105 -0.0 -0.0169 -0.0 0.0
1e-07 -0.0 -0.0 0.0 -0.0 0.0 -0.0 0.0
0.0 0.0 -0.0 -0.06015 -0.0 -0.0 -0.0 -0.0
-0.0 0.00708 -0.0 -0.0 0.0 0.0 -0.0 0.0
-0.0 0.0 -0.0 0.0 -0.0 -0.0 -0.0 0.0
-0.0 0.0 -0.0 0.0 -0.0 0.0 -0.03784 -0.0
0.0 0.0 -0.02542 -0.0 -0.0 0.0 -0.0 0.0
-0.0 0.0 0.0 -0.02832 -0.0 0.0 -0.04266 0.0
-0.0 0.0001589 0.0 0.0 -0.0 0.01555 0.0 -0.0001607
0.0 0.0 -0.0 -0.0 0.0 0.0 0.0 -0.0

model/separable_conv2d_5/separable_conv2d/Cast f2 [3, 3, 96, 1]
00000000: cb2a 0000 2e2b 0080 0000 a6a8 0000 c724
00000010: a7a3 0080 0080 dbac 0000 710d 40a4 e629
00000020: 0080 0080 0000 d8aa b823 8026 0000 c62c
00000030: 0000 0080 c08c 0080 0080 0000 6d28 0000
00000040: ab29 0000 0000 0000 0000 0080 6410 53a3
00000050: 0080 0080 0000 0080 c910 3721 0000 1e00
00000060: d32b 86aa 0080 0000 0080 d0a9 0080 0000
00000070: 0080 0ca7 930c 3415 0080 0000 8ea5 1d2c
00000080: 0000 0000 0000 0080 0000 faa3 f929 c9a4
00000090: d103 27ac 0080 78a5 6114 0080 0080 7b27
000000a0: ce1e 0080 1ea0 0000 36a0 0080 0080 0000
000000b0: 9ba6 57a5 6229 5087 52a9 0000 cda8 0000
000000c0: 0623 0080 b829 0080 0080 7226 0080 2129
000000d0: f696 0000 0000 881b 0080 1213 25a9 a921
000000e0: 0080 0000 0080 fcab f120 2727 0000 4e27
000000f0: 0080 0080 1e84 0080 0080 0080 a72b 0000
00000100: c728 0000 0080 0080 0000 0000 1103 e6a5
00000110: 0080 0080 0080 0000 f410 8723 0000 0380
00000120: 572a 69ab 0000 0000 0000 c4a5 0000 0080
00000130: 0000 4922 bea1 bd9c 0000 0080 97aa dc2a
00000140: 0080 0080 0000 0000 0080 c9ab aa26 6aa2
00000150: 8827 a7ac 0080 53a9 1094 0000 0000 c628
00000160: aca5 0080 03a8 0000 1695 0000 0000 0000
00000170: 36a9 f029 fb29 d918 76a9 0080 b5a9 0080
00000180: d8aa 0000 cf24 0080 0080 2223 0080 732a
00000190: 43a9 0080 0080 ef28 0080 6a02 0aaa 3924
000001a0: 0080 0080 0080 43aa 0a26 532a 0080 7726
000001b0: 0080 0080 ec0a 0000 0000 0000 9729 0080
000001c0: 4825 0000 0000 0000 0080 0000 3291 14ac
000001d0: 0080 0000 0000 0000 0a96 25a8 0000 0500
000001e0: bd25 6fab 0000 0080 0000 6b29 0080 0080
000001f0: 0080 fd2b cb24 099c 0000 0000 5cab e02c
0.05307 0.0 0.0561 -0.0 0.0 -0.03632 0.0 0.01866
-0.014946 -0.0 -0.0 -0.07587 0.0 0.000332 -0.0166 0.04608
-0.0 -0.0 0.0 -0.05347 0.015076 0.02539 0.0 0.0746
0.0 -0.0 -0.00029 -0.0 -0.0 0.0 0.03458 0.0
0.04428 0.0 0.0 0.0 0.0 -0.0 0.000536 -0.014305
-0.0 -0.0 0.0 -0.0 0.000584 0.010185 0.0 1.8e-06
0.06113 -0.05096 -0.0 0.0 -0.0 -0.0454 -0.0 0.0
-0.0 -0.02753 0.0002792 0.00127 -0.0 0.0 -0.0217 0.0643
0.0 0.0 0.0 -0.0 0.0 -0.01558 0.04666 -0.01869
5.823e-05 -0.0649 -0.0 -0.02136 0.001069 -0.0 -0.0 0.02922
0.006645 -0.0 -0.00804 0.0 -0.008224 -0.0 -0.0 0.0
-0.0258 -0.02086 0.04205 -0.0001116 -0.04156 0.0 -0.0375 0.0
0.01372 -0.0 0.04468 -0.0 -0.0 0.02518 -0.0 0.04007
-0.001699 0.0 0.0 0.003677 -0.0 0.000863 -0.0402 0.011055
-0.0 0.0 -0.0 -0.06238 0.00965 0.02794 0.0 0.02853
-0.0 -0.0 -6.28e-05 -0.0 -0.0 -0.0 0.05978 0.0
0.03732 0.0 -0.0 -0.0 0.0 0.0 4.68e-05 -0.02304
-0.0 -0.0 -0.0 0.0 0.0006046 0.0147 0.0 -2e-07
0.04953 -0.0579 0.0 0.0 0.0 -0.02252 0.0 -0.0
0.0 0.012276 -0.011215 -0.004627 0.0 -0.0 -0.05148 0.0536
-0.0 -0.0 0.0 0.0 -0.0 -0.06082 0.02603 -0.01253
0.02942 -0.0727 -0.0 -0.0416 -0.000992 0.0 0.0 0.0373
-0.02216 -0.0 -0.03134 0.0 -0.001242 0.0 0.0 0.0
-0.0407 0.0464 0.04672 0.002367 -0.04266 -0.0 -0.0446 -0.0
-0.05347 0.0 0.01878 -0.0 -0.0 0.01393 -0.0 0.05038
-0.0411 -0.0 -0.0 0.03854 -0.0 3.684e-05 -0.04718 0.0165
-0.0 -0.0 -0.0 -0.04892 0.02359 0.0494 -0.0 0.02525
-0.0 -0.0 0.0002112 0.0 0.0 0.0 0.04367 -0.0
0.02063 0.0 0.0 0.0 -0.0 0.0 -0.000634 -0.0637
-0.0 0.0 0.0 0.0 -0.001474 -0.03238 0.0 3e-07
0.02242 -0.05807 0.0 -0.0 0.0 0.04233 -0.0 -0.0
-0.0 0.0624 0.01872 -0.00394 0.0 0.0 -0.0575 0.0762

model/separable_conv2d_5/separable_conv2d/Cast_1 f2 [1, 1, 96, 96]
00000000: 74ab fd22 8c21 431c 5122 3b1d ca23 1321
00000010: c51b 38ab 2925 cb26 0000 7a0f 0080 e2a8
00000020: 60a3 6b28 83a4 ba20 db21 ad27 7e27 c621
00000030: 0000 0080 d529 0725 bf25 e317 3b2b 1d0c
00000040: 732b 0516 5e21 0225 781f 6d1e f91b a021
00000050: 9f1f 0827 9427 2b1c 1525 6b24 f51e 091e
00000060: 6b27 c7a3 2424 ba2a 8b27 42a0 2124 3014
00000070: 6c1d 0000 0080 0000 0000 ae9f 3728 0080
00000080: 0f00 9b22 0929 0000 4d25 0824 219e 0fa9
00000090: 9da8 bf9b 14a6 b29a d82a 1d24 81a2 0080
000000a0: 7aa2 621f db26 9725 66aa 0080 8ca6 8322
000000b0: dca4 a792 bc25 6e8e 0080 31a8 4c28 2a22
000000c0: 0080 0000 0080 0000 0080 0000 0000 0080
000000d0: 0000 0080 0000 0080 0080 0080 0080 0000
000000e0: 0000 0000 0000 0000 0000 0080 0000 0000
000000f0: 0080 0000 0000 0000 0080 0000 0000 0000
00000100: 0080 0000 0080 0000 0000 0000 0080 0080
00000110: 0080 0000 0000 0080 0080 0000 0000 0080
00000120: 0000 0000 0080 0000 0080 0000 0000 0000
00000130: 0000 0000 0000 0000 0080 0000 0080 0080
00000140: 0080 0000 0080 0080 0000 0000 0000 0080
00000150: 0080 0000 0080 0080 0080 0000 0000 0080
00000160: 0000 0000 0080 0080 0080 0080 0080 0000
00000170: 0000 0000 0080 0000 0000 0080 0080 0080
00000180: b526 c49c 171c f520 3da4 fe26 7e21 fe9b
00000190: 2c27 7f24 7924 a928 0080 1423 0000 5d27
000001a0: 4ba7 4f92 8ea0 78a6 4628 8b19 201e 1026
000001b0: 0080 0080 f81d c624 1a26 eb16 ffa4 fe20
000001c0: 3228 8e19 cc20 8c95 10a4 849f 3c1b c023
000001d0: e49f 56a8 c623 8525 23a1 c625 ed25 3a22
000001e0: 7321 b824 cf23 ed99 e4a9 2121 8496 17a0
000001f0: d627 0080 0080 0080 0000 d5a2 559d 0080
-0.05823 0.01365 0.01083 0.00416 0.01234 0.005108 0.01521 0.00991
0.003794 -0.0564 0.02016 0.02654 0.0 0.0004563 -0.0 -0.03815
-0.014404 0.03452 -0.01762 0.00923 0.01144 0.02998 0.02927 0.01128
0.0 -0.0 0.04556 0.01964 0.02245 0.001925 0.0565 0.000251
0.0582 0.00147 0.01048 0.01956 0.007294 0.006275 0.003893 0.01099
0.007442 0.02747 0.0296 0.00407 0.01985 0.01726 0.006794 0.005894
0.02898 -0.01519 0.01617 0.05255 0.02946 -0.008316 0.01613 0.001022
0.005295 0.0 -0.0 0.0 0.0 -0.0075 0.03293 -0.0
9e-07 0.0129 0.03934 0.0 0.0207 0.01575 -0.005985 -0.03952
-0.03604 -0.003782 -0.02374 -0.00327 0.05347 0.01607 -0.0127 -0.0
-0.01265 0.00721 0.02678 0.02184 -0.05 -0.0 -0.02557 0.01272
-0.01898 -0.000812 0.0224 -0.0003924 -0.0 -0.03275 0.03357 0.01204
-0.0 0.0 -0.0 0.0 -0.0 0.0 0.0 -0.0
0.0 -0.0 0.0 -0.0 -0.0 -0.0 -0.0 0.0
0.0 0.0 0.0 0.0 0.0 -0.0 0.0 0.0
-0.0 0.0 0.0 0.0 -0.0 0.0 0.0 0.0
-0.0 0.0 -0.0 0.0 0.0 0.0 -0.0 -0.0
-0.0 0.0 0.0 -0.0 -0.0 0.0 0.0 -0.0
0.0 0.0 -0.0 0.0 -0.0 0.0 0.0 0.0
0.0 0.0 0.0 0.0 -0.0 0.0 -0.0 -0.0
-0.0 0.0 -0.0 -0.0 0.0 0.0 0.0 -0.0
-0.0 0.0 -0.0 -0.0 -0.0 0.0 0.0 -0.0
0.0 0.0 -0.0 -0.0 -0.0 -0.0 -0.0 0.0
0.0 0.0 -0.0 0.0 0.0 -0.0 -0.0 -0.0
0.0262 -0.004654 0.003994 0.00968 -0.01656 0.02731 0.01073 -0.003902
0.02802 0.01756 0.01747 0.0364 -0.0 0.013824 0.0 0.02876
-0.02849 -0.00077 -0.008896 -0.02527 0.0334 0.002707 0.00598 0.02368
-0.0 -0.0 0.00583 0.01865 0.02383 0.001689 -0.01952 0.00975
0.03278 0.002712 0.00937 -0.001354 -0.01587 -0.00734 0.003532 0.01514
-0.007706 -0.03387 0.01518 0.02156 -0.01003 0.02255 0.02315 0.01216
0.01064 0.01843 0.01525 -0.002893 -0.04602 0.01002 -0.001591 -0.00799
0.03061 -0.0 -0.0 -0.0 0.0 -0.01334 -0.005207 -0.0

model/separable_conv2d_4/separable_conv2d/Cast f2 [3, 3, 64, 1]
00000000: 70a8 d39a 402d 3d2b fb2e e6a3 c31e 62a6
00000010: 0080 1fad 4ea6 5728 71a8 db2b a4ab 78a9
00000020: ae2c 73a9 432b 992b 002d 97ae 00ac 5dae
00000030: 6da4 08ab 7a26 9429 2699 1d17 06ac af24
00000040: f7ad 0080 88a3 73ab 1529 78a8 009b 5aac
00000050: 38ab 83aa 562d 0000 fd2d ccad 16ad d6a7
00000060: ff24 6e28 6ba3 01ae 9eae 20a6 722c a7ac
00000070: e4ab 3e2a 8c2b efab 97a3 a3a7 fdaa 26ac
00000080: 90ab e69e 8b28 f626 7c2c 5da1 deac 89ac
00000090: 0000 57a9 5cab 3099 5ea9 a02b 0029 7faa
000000a0: 3328 d8a6 7d2c c929 e72c ce14 6aac 98a9
000000b0: b1ab c7ac 982a 822a b524 f62a bea4 6d28
000000c0: f8a8 0080 fa26 f7a8 33aa bf2b 64ab 05a8
000000d0: b89b c9aa 4a96 0000 c62c dca9 7d17 0525
000000e0: eb28 97ac 51a6 2eab c098 13ac 1a2a 4098
000000f0: 29aa 1bab aa2b 779c 18a8 b4a9 929f 24a1
00000100: b9a7 e2ab 9918 d621 2721 ad2e 9ead 2baa
00000110: 0000 4ca9 99aa d92b 0fa4 fd29 b72c eba9
00000120: bd29 4428 012c bb2c 4129 7598 e1a8 62a4
00000130: 6cad 38aa 4ea1 a52d a3a6 062f b12c d12b
00000140: 409c 0080 982c 3ea8 9cac 722a 05ad 6f29
00000150: df29 5ca4 632b 0080 c1a5 39a8 692b e9ab
00000160: 4fa5 a6a4 f523 58a1 faa3 e1a2 a829 64ad
00000170: 84a8 78ad 452c 2424 65a9 9113 79ae 832a
00000180: 441e a128 f629 0e28 2126 66ab a929 3f9a
00000190: 0080 a1a4 a394 73a8 452b 0325 201f 5225
000001a0: 712a b4aa 5faa 7f21 48a4 a7ab 32a5 fe27
000001b0: fa2b be27 042d 35a8 1a2c 31a6 d2ad b622
000001c0: a626 0080 cca5 3ea2 1818 5926 4d21 c2aa
000001d0: 13ac 47ab 6e24 0000 af28 c719 ada9 1d2d
000001e0: 5f24 ada6 7fa3 709a f923 0e25 57a7 f028
000001f0: eda6 a6a7 0828 a5ac 27a5 6225 9e26 faac
-0.03467 -0.003332 0.08203 0.05655 0.1091 -0.01543 0.006603 -0.02493
-0.0 -0.08 -0.02463 0.0339 -0.0347 0.06137 -0.0597 -0.04272
0.0731 -0.04257 0.05673 0.05936 0.0781 -0.10297 -0.0625 -0.0994
-0.01729 -0.05493 0.0253 0.04358 -0.002514 0.001737 -0.06287 0.0183
-0.0932 -0.0 -0.01471 -0.0582 0.0397 -0.0349 -0.003418 -0.068
-0.0564 -0.05087 0.0834 0.0 0.09357 -0.0906 -0.07947 -0.03061
0.01952 0.0346 -0.01449 -0.0938 -0.1034 -0.02393 0.06946 -0.0727
-0.06165 0.04877 0.05896 -0.06198 -0.014824 -0.02983 -0.0546 -0.0648
-0.05908 -0.006737 0.0355 0.02719 0.07007 -0.010475 -0.07605 -0.07086
0.0 -0.04172 -0.0575 -0.002533 -0.04193 0.05957 0.03906 -0.05075
0.0328 -0.02673 0.0701 0.0452 0.0766 0.001173 -0.069 -0.0437
-0.0601 -0.07465 0.0515 0.05084 0.01839 0.05438 -0.01852 0.03458
-0.03882 -0.0 0.02725 -0.0388 -0.04843 0.06052 -0.05774 -0.0314
-0.003769 -0.053 -0.001535 0.0 0.0746 -0.04578 0.001828 0.0196
0.03842 -0.0717 -0.02467 -0.0561 -0.00232 -0.06366 0.04767 -0.002075
-0.04813 -0.0555 0.05988 -0.00436 -0.03198 -0.04456 -0.007393 -0.01004
-0.03017 -0.06158 0.002245 0.0114 0.01006 0.1043 -0.08777 -0.0482
0.0 -0.04138 -0.05154 0.0613 -0.01585 0.04678 0.07367 -0.04623
0.04483 0.03333 0.06256 0.0739 0.04105 -0.002176 -0.03812 -0.01712
-0.0847 -0.04858 -0.01036 0.0882 -0.02592 0.10974 0.0733 0.06107
-0.00415 -0.0 0.0718 -0.03314 -0.072 0.05035 -0.0784 0.04245
0.04587 -0.01703 0.0577 -0.0 -0.02248 -0.033 0.0579 -0.0618
-0.02074 -0.01816 0.01554 -0.01044 -0.01558 -0.013435 0.0442 -0.0842
-0.03528 -0.08545 0.0667 0.01617 -0.04214 0.0009236 -0.10114 0.05087
0.00612 0.03616 0.04657 0.03168 0.02394 -0.0578 0.04422 -0.00305
-0.0 -0.01808 -0.001132 -0.03476 0.0568 0.01958 0.006958 0.02078
0.05032 -0.05237 -0.04977 0.010735 -0.01672 -0.05978 -0.0203 0.03122
0.06232 0.03024 0.07837 -0.03287 0.0641 -0.02419 -0.09094 0.01311
0.02597 -0.0 -0.02264 -0.01219 0.001999 0.0248 0.01035 -0.0528
-0.06366 -0.05685 0.0173 0.0 0.0366 0.002821 -0.04434 0.0799
0.01707 -0.02608 -0.01464 -0.003143 0.01557 0.01974 -0.02867 0.03857
-0.02705 -0.02988 0.0315 -0.0726 -0.02013 0.02103 0.02585 -0.07776

model/separable_conv2d_4/separable_conv2d/Cast_1 f2 [1, 1, 64, 96]
00000000: 1da3 0080 1ca8 0080 0080 3124 0080 6a9a
00000010: fcac 0080 0000 d3a2 0080 3a02 2326 ce24
00000020: 0080 0080 0080 9e14 df13 b0a3 0000 ed9a
00000030: 0000 0080 4202 0080 0000 0080 a4a7 0080
00000040: 039c 0080 0000 0000 0080 0000 c901 7493
00000050: 0000 0080 0080 0000 5d80 540e 0080 0080
00000060: 6621 3b2c 0000 0000 0080 c124 0080 0080
00000070: 0000 75a4 2bad cf8e 0080 0080 bc1d 6ca6
00000080: 0080 0000 0000 0080 0080 e9a9 0b27 7711
00000090: c398 baa6 0000 8fa4 0700 0000 0000 7d9e
000000a0: 9a98 0000 2fa2 0000 2e27 0080 0080 0080
000000b0: 26a5 35a5 c328 f815 e221 0000 16a6 0080
000000c0: fba6 0080 099a 0000 0000 5625 0000 d922
000000d0: 0ba9 0000 0000 b418 0080 f981 db23 9d10
000000e0: 0080 0000 0000 351f 952a 5fa4 0080 4c28
000000f0: 0080 0080 6002 0080 0000 0000 9422 0080
00000100: 751e 0000 0080 0080 0000 0000 758e fc20
00000110: 0000 0000 0080 0080 2f00 92a4 0080 0000
00000120: 0c27 e996 0080 0000 0080 3421 0080 0000
00000130: 0080 3c21 92a2 8095 0080 0080 70a4 b1a5
00000140: 0080 0080 0000 0080 0000 7b9c 3825 70a8
00000150: b4a7 0f1e 0000 0729 0780 0080 0000 7b1b
00000160: b112 0080 86a5 0000 2029 0000 0080 0000
00000170: 1ead 7fa2 b0ad 6912 df24 0000 1127 0000
00000180: 5da3 0000 2a22 0080 0080 d69d 0080 c3a4
00000190: ec22 0080 0000 3525 0000 c380 6216 f723
000001a0: 0080 0000 0080 5422 b9a3 879d 0000 dba6
000001b0: 0000 0000 1080 0080 0080 0080 1aa8 0080
000001c0: 20a5 0080 0000 0000 0000 0000 e38a 5fa2
000001d0: 0000 0080 0080 0080 2900 3f81 0000 0000
000001e0: 0a26 6926 0000 0080 0080 399f 0080 0080
000001f0: 0000 cea5 d088 9313 0000 0080 47ab 5ea8
-0.01389 -0.0 -0.0321 -0.0 -0.0 0.01637 -0.0 -0.003132
-0.0779 -0.0 0.0 -0.01333 -0.0 3.4e-05 0.02397 0.01877
-0.0 -0.0 -0.0 0.001127 0.000961 -0.015015 0.0 -0.003382
0.0 -0.0 3.445e-05 -0.0 0.0 -0.0 -0.02985 -0.0
-0.003918 -0.0 0.0 0.0 -0.0 0.0 2.724e-05 -0.00091
0.0 -0.0 -0.0 0.0 -5.54e-06 0.0003862 -0.0 -0.0
0.010544 0.0661 0.0 0.0 -0.0 0.01857 -0.0 -0.0
0.0 -0.01741 -0.08075 -0.0004156 -0.0 -0.0 0.0056 -0.02509
-0.0 0.0 0.0 -0.0 -0.0 -0.04617 0.02751 0.000667
-0.002325 -0.02628 0.0 -0.0178 4e-07 0.0 0.0 -0.006336
-0.002247 0.0 -0.01208 0.0 0.02805 -0.0 -0.0 -0.0
-0.02011 -0.02034 0.0372 0.001457 0.01149 0.0 -0.02377 -0.0
-0.02727 -0.0 -0.002947 0.0 0.0 0.02084 0.0 0.013374
-0.0394 0.0 0.0 0.002296 -0.0 -3.01e-05 0.01534 0.000563
-0.0 0.0 0.0 0.00704 0.05142 -0.01707 -0.0 0.03357
-0.0 -0.0 3.624e-05 -0.0 0.0 0.0 0.01285 -0.0
0.006306 0.0 -0.0 -0.0 0.0 0.0 -0.000394 0.009735
0.0 0.0 -0.0 -0.0 2.8e-06 -0.01785 -0.0 0.0
0.02753 -0.001687 -0.0 0.0 -0.0 0.01016 -0.0 0.0
-0.0 0.01022 -0.01283 -0.001343 -0.0 -0.0 -0.01733 -0.02223
-0.0 -0.0 0.0 -0.0 0.0 -0.004375 0.02039 -0.03467
-0.03009 0.005917 0.0 0.03928 -4e-07 -0.0 0.0 0.003653
0.000817 -0.0 -0.02158 0.0 0.04004 0.0 -0.0 0.0
-0.07996 -0.01269 -0.08887 0.0007825 0.01903 0.0 0.0276 0.0
-0.01438 0.0 0.01204 -0.0 -0.0 -0.0057 -0.0 -0.0186
0.01352 -0.0 0.0 0.02034 0.0 -1.16e-05 0.001558 0.01556
-0.0 0.0 -0.0 0.01236 -0.01508 -0.005398 0.0 -0.02678
0.0 0.0 -9.5e-07 -0.0 -0.0 -0.0 -0.03204 -0.0
-0.02002 -0.0 0.0 0.0 0.0 0.0 -0.0002102 -0.01244
0.0 -0.0 -0.0 -0.0 2.44e-06 -1.9e-05 0.0 0.0
0.02359 0.02504 0.0 -0.0 -0.0 -0.007053 -0.0 -0.0
0.0 -0.02267 -0.0001469 0.0009246 0.0 -0.0 -0.05685 -0.03412

model/separable_conv2d_3/separable_conv2d/Cast f2 [3, 3, 64, 1]
00000000: 8d22 ce99 0000 fdad 0000 0000 0000 da24
00000010: 2aa7 92a3 4d28 81a2 0000 0080 da1b 71ac
00000020: 612d 979e 521f 75a3 390f d224 252a 98a2
00000030: ac28 66a0 0000 0000 0080 5525 0080 5aaa
00000040: b39c 0000 09a4 0000 2d1c f82c 85aa 96a6
00000050: 0f1d 612c efa4 dda8 0080 0080 ca28 0000
00000060: 41a5 0080 af99 f9a6 0000 c1a8 081d 0080
00000070: ee27 bc15 64aa df9a 0080 de2a 0080 0080
00000080: 889c 7994 0000 df1f 0000 0080 0000 0ea4
00000090: 2b23 102c 3121 b5ad 0000 0000 7719 6ea4
000000a0: 7a2c de2d b8ad 9495 b628 141e fb2b 15a4
000000b0: 2e24 27a8 0000 0080 0080 9ba2 0000 79a0
000000c0: 7aa4 0000 3722 0000 6890 052d 1eac 55a1
000000d0: 079d 9c2c ff9f fca2 0000 0080 5f23 0000
000000e0: 8729 0080 f62d b326 0080 c12a 0b2e 0080
000000f0: 9626 1c90 dda3 e824 0080 13a1 0080 0080
00000100: fca0 051a 0080 1128 0000 0000 0000 62a6
00000110: 62ac 69a4 8d24 0fad 0080 0000 45a6 3227
00000120: b9a8 582f f9ac 21a9 612c c49d 2f28 16ab
00000130: d128 822d 0000 0000 0000 9720 0000 c41d
00000140: c12d 0080 1728 0080 25a2 d722 e4ab 3aa8
00000150: 8da0 ec27 919a 5c9d 0000 0000 8e23 0000
00000160: 5f2c 0000 9a26 d19e 0080 a7a8 9e28 0080
00000170: 6495 6399 0f28 462c 0080 bea8 0000 0000
00000180: 52a8 d919 0000 93ab 0080 0000 0080 99a3
00000190: b0a9 9aad eb29 aea6 0080 0080 e7aa 8eaa
000001a0: 2e29 62a8 2c2a 65aa 512a d711 8c29 3126
000001b0: c193 9b1d 0080 0080 0080 d828 0000 2da9
000001c0: 5faa 0080 6e27 0080 d2a8 e42b 0fa9 06a8
000001d0: d1a9 d82a 42a6 5e1c 0000 0000 f128 0080
000001e0: 2915 0000 f7a6 4d2a 0080 4cab d023 0080
000001f0: 47a2 688d 2fac ad28 0000 6b27 0080 0080
0.012794 -0.002834 0.0 -0.09357 0.0 0.0 0.0 0.01895
-0.02798 -0.014786 0.0336 -0.0127 0.0 -0.0 0.003834 -0.0694
0.08405 -0.006435 0.00715 -0.014565 0.0004408 0.01883 0.048 -0.01288
0.0365 -0.00859 0.0 0.0 -0.0 0.02083 -0.0 -0.04962
-0.00459 0.0 -0.01576 0.0 0.004078 0.07764 -0.05093 -0.02573
0.00494 0.0684 -0.01927 -0.038 -0.0 -0.0 0.0374 0.0
-0.02052 -0.0 -0.002775 -0.02724 0.0 -0.03714 0.004913 -0.0
0.03098 0.0014 -0.04993 -0.003355 -0.0 0.05365 -0.0 -0.0
-0.004425 -0.001092 0.0 0.007687 0.0 -0.0 0.0 -0.01584
0.014 0.0635 0.01014 -0.0892 0.0 0.0 0.002668 -0.0173
0.06995 0.0917 -0.08936 -0.001362 0.0368 0.005936 0.06235 -0.01595
0.01633 -0.03244 0.0 -0.0 -0.0 -0.0129 0.0 -0.008736
-0.01749 0.0 0.01214 0.0 -0.000538 0.0784 -0.06433 -0.010414
-0.00491 0.072 -0.00781 -0.01364 0.0 -0.0 0.0144 0.0
0.04318 -0.0 0.09314 0.02617 -0.0 0.05276 0.0944 -0.0
0.02573 -0.0005016 -0.01536 0.01917 -0.0 -0.00991 -0.0 -0.0
-0.009735 0.00294 -0.0 0.03177 0.0 0.0 0.0 -0.02493
-0.0685 -0.01723 0.01778 -0.07904 -0.0 0.0 -0.02449 0.0281
-0.0369 0.11475 -0.0777 -0.04007 0.0684 -0.00563 0.03268 -0.05536
0.03763 0.08606 0.0 0.0 0.0 0.008965 0.0 0.00563
0.0899 -0.0 0.03195 -0.0 -0.012 0.01336 -0.06165 -0.03302
-0.00889 0.03094 -0.003206 -0.005234 0.0 0.0 0.014755 0.0
0.0683 0.0 0.02579 -0.006657 -0.0 -0.03635 0.03607 -0.0
-0.001316 -0.00263 0.0317 0.0668 -0.0 -0.03705 0.0 0.0
-0.03375 0.002855 0.0 -0.05917 -0.0 0.0 -0.0 -0.01484
-0.04443 -0.0875 0.04623 -0.0261 -0.0 -0.0 -0.05392 -0.0512
0.04047 -0.03424 0.04822 -0.04996 0.04935 0.000713 0.04333 0.02419
-0.0009465 0.005474 -0.0 -0.0 -0.0 0.03784 0.0 -0.04044
-0.04977 -0.0 0.02902 -0.0 -0.03766 0.06165 -0.03952 -0.03143
-0.04544 0.05347 -0.02444 0.004265 0.0 0.0 0.0386 -0.0
0.00126 0.0 -0.0272 0.04922 -0.0 -0.057 0.01526 -0.0
-0.01226 -0.00033 -0.06537 0.03653 0.0 0.02898 -0.0 -0.0

model/separable_conv2d_3/separable_conv2d/Cast_1 f2 [1, 1, 64, 64]
00000000: 50a6 6ea7 8b24 1522 0f2b b127 50a7 f821
00000010: 0000 091e 6927 9d25 7929 a89a 0026 fc12
00000020: 782b cf2a 9527 0493 7720 472c 9425 13a8
00000030: a892 a19d a32d 339f 3821 442c 302c dda3
00000040: ad23 0080 6621 8fa6 60a7 bb28 5ba4 b2a4
00000050: 3428 7e1c e429 0000 f52b 7ea8 d22c 9223
00000060: bf23 2629 2ca9 7724 b6a5 a628 379c ca28
00000070: 6a26 7a24 001d 6d26 801a fca5 e096 6c2c
00000080: f012 d78e 330c 6a02 ad90 b60e 2b1c b39a
00000090: 0000 8397 bf90 348f d389 8092 670e 1690
000000a0: fe91 1183 2e90 b894 601c d38b 3a91 2a83
000000b0: d493 6091 5e93 2797 8d90 3414 c905 1913
000000c0: 4814 0000 b508 c319 279c 5f0d 1792 4489
000000d0: af1b 1f8e 1e93 0080 040e ec98 ed94 7f14
000000e0: e011 998b be13 4482 9d8f 2194 8585 4798
000000f0: a68c 6401 c005 6298 b705 6b18 228d 1c8f
00000100: 0000 0000 0080 0000 0000 0000 0000 0080
00000110: 0000 0000 0080 0000 0000 0080 0000 0000
00000120: 0080 0000 0000 0000 0000 0000 0000 0000
00000130: 0000 0080 0080 0000 0000 0000 0000 0080
00000140: 0080 0080 0080 0000 0000 0000 0080 0000
00000150: 0080 0080 0000 0000 0080 0000 0080 0000
00000160: 0000 0080 0080 0000 0080 0000 0000 0080
00000170: 0000 0000 0080 0000 0000 0080 0080 0080
00000180: 0fa9 0ea5 d0a4 ee9a bba1 d724 35aa 0e29
00000190: 0000 3fa6 d9a5 10a4 22a4 39a9 212a e0a4
000001a0: 7fa5 1e27 ceab e2a9 b32a 25aa 15a4 7e2c
000001b0: c617 66a4 c1a1 c8a2 5e22 9f13 be20 31ab
000001c0: cca4 0080 f524 cfa8 5c2d 5529 1a26 192c
000001d0: 2126 4626 b61e 0000 52a8 0f2c b629 94a4
000001e0: 28a0 7d1a ad18 33a6 4426 a7a2 dd1e a228
000001f0: eaa3 a928 96a9 5923 bb16 1421 181d 5e28
-0.02466 -0.02902 0.01775 0.01188 0.05515 0.03004 -0.02856 0.01166
0.0 0.005894 0.02895 0.02193 0.04276 -0.00325 0.02344 0.0008526
0.05835 0.0532 0.02962 -0.0008564 0.00872 0.06683 0.02179 -0.03183
-0.0008125 -0.005497 0.0881 -0.00703 0.01019 0.06665 0.0654 -0.01536
0.01499 -0.0 0.010544 -0.02562 -0.02881 0.03696 -0.01701 -0.01834
0.03284 0.004387 0.04602 0.0 0.06216 -0.0351 0.0753 0.014786
0.01513 0.04022 -0.0404 0.01744 -0.02231 0.03632 -0.004116 0.0374
0.02505 0.01749 0.004883 0.0251 0.003174 -0.02338 -0.001678 0.0691
0.000847 -0.0004175 0.0002563 3.684e-05 -0.000571 0.0004096 0.00407 -0.003271
0.0 -0.001834 -0.0005794 -0.0004396 -0.0001777 -0.0007935 0.0003908 -0.000499
-0.0007315 -4.68e-05 -0.00051 -0.001152 0.004272 -0.0002388 -0.000638 -4.83e-05
-0.0009556 -0.000656 -0.0008993 -0.001746 -0.0005555 0.001026 8.83e-05 0.0008664
0.001045 0.0 0.0001436 0.002813 -0.004055 0.0003278 -0.0007434 -0.0001607
0.003752 -0.0003736 -0.000869 -0.0 0.0003672 -0.002403 -0.001203 0.001098
0.000717 -0.0002319 0.000945 -3.46e-05 -0.0004647 -0.001008 -8.42e-05 -0.002089
-0.0002837 2.12e-05 8.774e-05 -0.00214 8.72e-05 0.002157 -0.0003133 -0.000434
0.0 0.0 -0.0 0.0 0.0 0.0 0.0 -0.0
0.0 0.0 -0.0 0.0 0.0 -0.0 0.0 0.0
-0.0 0.0 0.0 0.0 0.0 0.0 0.0 0.0
0.0 -0.0 -0.0 0.0 0.0 0.0 0.0 -0.0
-0.0 -0.0 -0.0 0.0 0.0 0.0 -0.0 0.0
-0.0 -0.0 0.0 0.0 -0.0 0.0 -0.0 0.0
0.0 -0.0 -0.0 0.0 -0.0 0.0 0.0 -0.0
0.0 0.0 -0.0 0.0 0.0 -0.0 -0.0 -0.0
-0.03952 -0.01974 -0.0188 -0.003384 -0.01119 0.0189 -0.0485 0.0395
0.0 -0.0244 -0.02284 -0.01587 -0.01614 -0.0408 0.04788 -0.01904
-0.02147 0.0278 -0.06097 -0.04596 0.05234 -0.048 -0.01595 0.0702
0.001898 -0.01718 -0.01124 -0.013245 0.012436 0.0009303 0.00926 -0.05618
-0.01874 -0.0 0.01936 -0.03757 0.08374 0.04166 0.02383 0.064
0.02394 0.0245 0.006554 0.0 -0.03375 0.0634 0.04462 -0.01788
-0.00812 0.003168 0.002283 -0.02422 0.02448 -0.01299 0.006702 0.0362
-0.01546 0.0364 -0.04364 0.01435 0.001643 0.00992 0.004974 0.03412

model/separable_conv2d_2/separable_conv2d/Cast f2 [3, 3, 32, 1]
00000000: 5b2e 7a26 ba2c 3cac d526 ea1a 5fa4 57ac
00000010: 132c b3af 1e2c 432b 84a9 3f1e f8a5 a8a8
00000020: d22c 8c1d b31d d72c 0da4 45a4 b3a9 e1a1
00000030: 8ba9 cd28 fe25 bb28 a326 f32e 9326 37ab
00000040: c71b 752b fc2d 701c ff2a 9429 6bad 7a27
00000050: 0ab0 61a1 afac 892f 3fad 0e2d 9aab adab
00000060: b02a 1d2c 6527 862d 309f 2216 99ab bc1d
00000070: 19ab 28aa 72aa 86a7 2ba2 f521 94ac a9ac
00000080: ba16 952c 4425 a2ac 492d c42c 70a9 a7ab
00000090: 2b2d 9b29 899e 7823 34ab 7cab 28ad 9cad
000000a0: 2c28 112b ba1e 6bae 5c28 04ab 522a 2e2e
000000b0: 50ac 1830 a92c e3ac 7f26 4429 62ad 72a7
000000c0: c82d 410e 5fa2 8aac 64aa 5c21 86a6 6426
000000d0: 7791 b4af f02a 9eab 75a5 50ad d59a d32d
000000e0: 88ac dbac b2aa 1428 a11f ffa9 98ad 50aa
000000f0: b021 2d9a c3a5 5f2c 15ad 4fa6 26a2 a121
00000100: 6a29 6d26 c6a9 aa28 9ba8 f728 86ad 92a2
00000110: a5ae 8aa8 6c28 92ac 2b2b a6ac 88a7 162f
00000120: b7a7 a9a8 07a8 a426 a311 9a2d 84ab 40ae
00000130: c52f a428 7cab 79ad 49ad b9aa f82d dba9
00000140: c6a8 b71a b830 a9a9 b312 c52c 5a9d dfaa
00000150: d52b 3c29 68b0 f22c d922 15a7 e9a6 1220
00000160: e59c a22c 43a6 7dad 03a7 7720 2d9e 3325
00000170: 3fa9 02a9 099c e7a9 d42b 4caa 1eac e59f
00000180: 7ca3 2ba7 7a2c 9ba4 73ac 90aa 41a9 26aa
00000190: dc2c cc2a 6d97 78a4 502f a3ad a626 0c2c
000001a0: f8ad f7a4 b6ac a226 b4ad 9bae 94a8 1615
000001b0: 42ad 462c e7ad b91f 77ad b328 1f2e 00a5
000001c0: fb27 c6ad a82c 229b 1ba8 db28 d42c 28a6
000001d0: 5fac 9421 a928 d1ac 1029 3e25 baa5 84ac
000001e0: b31e 64a5 e4aa 52a3 aea5 3ca5 78ab bfaa
000001f0: 0c30 42b0 6f9c 4d2c 0a16 4926 222a 2c9b
0.0993 0.0253 0.07385 -0.06616 0.02669 0.003376 -0.01707 -0.0678
0.06366 -0.1203 0.06433 0.05673 -0.0431 0.0061 -0.02332 -0.03638
0.0753 0.005417 0.005566 0.0756 -0.01582 -0.01668 -0.04453 -0.01148
-0.0433 0.0375 0.0234 0.03696 0.02592 0.1086 0.02568 -0.05637
0.003798 0.05826 0.0935 0.004333 0.05466 0.04358 -0.08466 0.0292
-0.1262 -0.010506 -0.0732 0.11774 -0.082 0.079 -0.0594 -0.05997
0.05225 0.0643 0.02888 0.0863 -0.00702 0.001497 -0.05936 0.0056
-0.05545 -0.0481 -0.05035 -0.02939 -0.01205 0.011635 -0.07153 -0.0728
0.001642 0.0716 0.02057 -0.0724 0.0826 0.07446 -0.04248 -0.05978
0.08075 0.0438 -0.006382 0.01459 -0.05627 -0.05847 -0.08057 -0.08765
0.0326 0.0552 0.00657 -0.1003 0.03406 -0.0548 0.04938 0.09656
-0.0674 0.1279 0.0728 -0.07635 0.02538 0.04114 -0.0841 -0.02908
0.09033 0.0003817 -0.01244 -0.0709 -0.04993 0.01047 -0.02548 0.02496
-0.000667 -0.12036 0.0542 -0.0595 -0.02132 -0.083 -0.003336 0.091
-0.0708 -0.07587 -0.0523 0.03186 0.00745 -0.04684 -0.0874 -0.04932
0.01111 -0.003016 -0.0225 0.0683 -0.0794 -0.02464 -0.01201 0.010994
0.0423 0.0251 -0.0451 0.03644 -0.03598 0.0388 -0.0863 -0.01283
-0.1038 -0.03546 0.03455 -0.0714 0.056 -0.07263 -0.02942 0.1107
-0.03014 -0.0364 -0.03146 0.02594 0.000688 0.0875 -0.05872 -0.09766
0.1214 0.03625 -0.05847 -0.0855 -0.0826 -0.05252 0.09326 -0.04575
-0.0373 0.003279 0.1475 -0.04422 0.000818 0.0745 -0.005226 -0.05368
0.0612 0.0409 -0.1377 0.0773 0.013374 -0.02766 -0.027 0.00795
-0.00478 0.0724 -0.02446 -0.08575 -0.02739 0.00872 -0.00603 0.02031
-0.041 -0.03912 -0.00394 -0.0461 0.06116 -0.0492 -0.06433 -0.00771
-0.01462 -0.028 0.06995 -0.01799 -0.0695 -0.05127 -0.04105 -0.04803
0.0759 0.0531 -0.001813 -0.01746 0.11426 -0.0881 0.02597 0.06323
-0.09326 -0.0194 -0.0736 0.02591 -0.0891 -0.1032 -0.03577 0.001242
-0.08215 0.0668 -0.0922 0.00754 -0.0854 0.0367 0.09564 -0.01953
0.03117 -0.0902 0.07275 -0.003483 -0.03207 0.03793 0.07544 -0.02405
-0.0683 0.010895 0.0364 -0.07526 0.03955 0.02048 -0.02237 -0.07056
0.006542 -0.02106 -0.05383 -0.0143 -0.02219 -0.02045 -0.05835 -0.0527
0.1265 -0.133 -0.00433 0.0672 0.001474 0.02455 0.0479 -0.003502

model/separable_conv2d_2/separable_conv2d/Cast_1 f2 [1, 1, 32, 64]
00000000: cf2a d01d 0080 e2a6 0000 0000 0080 0c23
00000010: 84a1 8ba1 c11d 5328 0000 0000 5125 05b0
00000020: 239f 8ea9 46a7 2325 0b98 b098 9fa4 3123
00000030: 04a9 53a3 0000 0000 0080 429d 0080 4424
00000040: 1d22 0000 e814 0080 96a1 7ba5 8f9c 6aa3
00000050: 7db0 c624 a614 51a8 0000 0000 7128 0000
00000060: 4714 0080 a624 7920 0080 e2a2 889a 0080
00000070: 6099 8382 1fa8 19a3 0000 9b97 0000 0000
00000080: 0e28 4a1c 0000 44aa 0080 0000 0080 cda3
00000090: 6d9b 1ca5 e3a3 cf28 0000 0000 f727 6aa8
000000a0: eb1f a8ae 06a3 c6a9 dd88 85a3 87a0 cd19
000000b0: 0f19 58a9 0080 0000 0080 7625 0000 92a5
000000c0: 512b 0080 28a6 0080 9c28 26a7 3720 f1a4
000000d0: 4024 5aa7 bba1 0d24 0000 0000 c5a5 0000
000000e0: 2ba1 0000 3aaa e39f 0000 2da9 e59e 0000
000000f0: 47a0 0a81 e7a6 36a3 0080 f027 0000 0000
00000100: f728 af9b 0080 be29 0080 0000 0080 cea1
00000110: 80ac e1a8 c4a9 552b 0000 0080 d2a2 772b
00000120: 1529 0f2e 9921 0629 80ab a123 d8b0 44a2
00000130: 0ba3 4a1d 0080 0080 0000 de9e 0080 b116
00000140: 581d 0000 b42c 0080 929c d624 952c f92d
00000150: 1a22 efa9 81a9 10ad 0000 0000 229d 0000
00000160: c021 0080 3a9c 78a6 0000 4029 6b2f 0080
00000170: ee21 891b 6924 c92b 0080 6226 0000 0000
00000180: 701d a908 0080 29a1 0080 0000 0000 051c
00000190: fb26 3ca4 62ab d9a8 0000 0000 f120 f5a9
000001a0: 49a7 faae 0ea4 61a0 e3a4 d098 5aa8 e21c
000001b0: b625 b2a2 0080 0000 0000 5718 0000 bc9c
000001c0: 6c27 0080 de24 0000 2024 c818 23a6 27a9
000001d0: f79c da10 8002 629c 0000 0000 0924 0000
000001e0: b9a2 0080 802b 76a1 0080 35a9 1428 0000
000001f0: b723 3901 019c c2a7 0080 dea2 0000 0000
0.0532 0.005676 -0.0 -0.02689 0.0 0.0 -0.0 0.01376
-0.01077 -0.010826 0.00562 0.03378 0.0 0.0 0.02077 -0.1256
-0.00697 -0.0434 -0.02841 0.02007 -0.001974 -0.002289 -0.01805 0.014046
-0.03918 -0.014305 0.0 0.0 -0.0 -0.005135 -0.0 0.01666
0.01194 0.0 0.001198 -0.0 -0.01091 -0.02141 -0.00445 -0.01448
-0.1403 0.01865 0.001135 -0.03372 0.0 0.0 0.0347 0.0
0.001044 -0.0 0.01816 0.008736 -0.0 -0.01344 -0.00319 -0.0
-0.002625 -3.83e-05 -0.0322 -0.01386 0.0 -0.001857 0.0 0.0
0.03168 0.00419 0.0 -0.04895 -0.0 0.0 -0.0 -0.015236
-0.003626 -0.01996 -0.0154 0.03757 0.0 0.0 0.03111 -0.0345
0.007732 -0.104 -0.01372 -0.0451 -0.0001484 -0.01469 -0.00884 0.002832
0.00247 -0.04175 -0.0 0.0 -0.0 0.02133 0.0 -0.02176
0.05716 -0.0 -0.02405 -0.0 0.036 -0.02792 0.00823 -0.0193
0.0166 -0.02872 -0.01119 0.01582 0.0 0.0 -0.02254 0.0
-0.01009 0.0 -0.04865 -0.0077 0.0 -0.04044 -0.006733 0.0
-0.008354 -1.585e-05 -0.02696 -0.014084 -0.0 0.031 0.0 0.0
0.0388 -0.003752 -0.0 0.04486 -0.0 0.0 -0.0 -0.01134
-0.0703 -0.03812 -0.04504 0.05728 0.0 -0.0 -0.01332 0.05832
0.0397 0.09467 0.01093 0.03925 -0.0586 0.0149 -0.1514 -0.01224
-0.013756 0.005165 -0.0 -0.0 0.0 -0.006706 -0.0 0.001634
0.00522 0.0 0.0735 -0.0 -0.004463 0.01889 0.0716 0.0933
0.01192 -0.04636 -0.043 -0.0791 0.0 0.0 -0.005013 0.0
0.01123 -0.0 -0.004128 -0.02527 0.0 0.04102 0.1159 -0.0
0.01158 0.00368 0.01723 0.06082 -0.0 0.02493 0.0 0.0
0.00531 0.0001422 -0.0 -0.01008 -0.0 0.0 0.0 0.003925
0.02727 -0.01654 -0.05768 -0.03787 0.0 0.0 0.00965 -0.04654
-0.02846 -0.109 -0.01584 -0.00855 -0.01909 -0.00235 -0.034 0.00477
0.02231 -0.01308 -0.0 0.0 0.0 0.00212 0.0 -0.004623
0.02899 -0.0 0.01901 0.0 0.01611 0.002335 -0.02397 -0.04025
-0.00485 0.000592 3.815e-05 -0.00428 0.0 0.0 0.01576 0.0
-0.01313 -0.0 0.0586 -0.010666 -0.0 -0.04068 0.03186 0.0
0.01507 1.866e-05 -0.00391 -0.0303 -0.0 -0.01341 0.0 0.0

model/separable_conv2d_1/separable_conv2d/Cast f2 [3, 3, 32, 1]
00000000: 5130 3600 21a7 c2a1 3fa8 0429 08ac 0000
00000010: caa7 b3a2 e7a4 0080 cea9 3629 e0a1 31a3
00000020: 5729 2b28 f5ab 0080 0080 ac30 29ab 9da8
00000030: 70a9 6f2d 5e2c 0000 1f2a cfae 6f2f fe24
00000040: 76ad 2400 a02e d22a e628 7e2c 2ca3 0080
00000050: 16a0 e22c 4da6 0080 97a1 62a0 8aa1 ffa4
00000060: ae2c 9b2e a8ae 0080 0080 1c2c 37a8 cfab
00000070: 832b fcac 4c2b 0000 f72c 2aaa 24ab 1ba7
00000080: 061f 0700 deaa 2e26 0a2d 2c9c 2432 0080
00000090: 0aa7 b8a7 0912 0000 efa3 87ab be24 cf22
000000a0: 072c 0d27 5bad 0080 0080 5e29 fd23 53a6
000000b0: e798 6e9d 1fac 0000 202c ec9d 6bac 37ab
000000c0: 1811 2c00 372d 659d a32c 70af 96a9 0080
000000d0: 159c 6d1c 95a8 0080 3aa9 9724 a6aa 432d
000000e0: 4fa8 6fab 3fab 0080 0000 d62d 90a9 22a9
000000f0: fead 9a24 e32d 0000 c0a3 b4ad 532e 522b
00000100: fbae 0a80 9c28 722b 122c 6c31 6d21 0000
00000110: 1e98 dca7 d627 0080 7cab 251c f521 4f94
00000120: eea6 2d2a 22a8 0080 0080 e62a 2fa9 2726
00000130: 0623 25a5 672b 0080 e2a5 adaa 32af 3625
00000140: 9b1c 0c80 9929 8625 1ea7 c297 842e 0080
00000150: 6325 05a2 8523 0000 daac 3cac ffa7 de1f
00000160: 4d2a e4aa 2fa6 0080 0080 02ad 719e 8c2c
00000170: 8322 fa2c 13a9 0000 162d b52c 42a9 e4ad
00000180: af1d 0a00 c92c 18a9 2a97 25ae a427 0000
00000190: cf27 a5a4 148d 0000 f0ab 0ea7 6ea1 712f
000001a0: eda8 adac 7ca9 0080 0080 72ac 232a caae
000001b0: 42aa 24a9 bc1d 0000 ee20 592b 5728 ef29
000001c0: e2ac 0300 07ac b227 42a3 f82a a218 0000
000001d0: f525 6cac ac9a 0000 6826 70a9 092d 832c
000001e0: 17ac 1814 6da4 0080 0000 b0ab a229 0128
000001f0: 4bab e22b 232e 0000 06ac 9dac 35ac bda0
0.1349 3.2e-06 -0.02785 -0.011246 -0.03317 0.03918 -0.063 0.0
-0.03043 -0.013084 -0.01915 -0.0 -0.04535 0.0407 -0.011475 -0.014046
0.04172 0.03256 -0.06216 -0.0 -0.0 0.146 -0.05594 -0.03604
-0.04248 0.0849 0.06824 0.0 0.04782 -0.1064 0.11615 0.0195
-0.0853 2.15e-06 0.1035 0.05328 0.03827 0.0702 -0.01401 -0.0
-0.00798 0.0763 -0.02461 -0.0 -0.01092 -0.00856 -0.01082 -0.01952
0.0731 0.1032 -0.104 -0.0 -0.0 0.0642 -0.03293 -0.061
0.0587 -0.0779 0.057 0.0 0.0776 -0.04816 -0.0558 -0.02776
0.00686 4e-07 -0.05365 0.02414 0.07874 -0.004074 0.1919 -0.0
-0.0275 -0.03015 0.0007367 0.0 -0.015495 -0.0588 0.01852 0.0133
0.0629 0.02754 -0.0837 -0.0 -0.0 0.04193 0.0156 -0.0247
-0.002394 -0.005302 -0.0644 0.0 0.06445 -0.005783 -0.06903 -0.05637
0.000622 2.6e-06 0.0815 -0.00527 0.07245 -0.1162 -0.04364 -0.0
-0.003986 0.004322 -0.0358 -0.0 -0.04083 0.01793 -0.05194 0.0822
-0.03366 -0.05807 -0.0566 -0.0 0.0 0.0912 -0.04346 -0.0401
-0.0936 0.01797 0.092 0.0 -0.01514 -0.0891 0.0988 0.0572
-0.1091 -6e-07 0.036 0.05817 0.0636 0.1694 0.0106 0.0
-0.00201 -0.0307 0.03061 -0.0 -0.05847 0.004047 0.011635 -0.001052
-0.02707 0.04825 -0.0323 -0.0 -0.0 0.0539 -0.0405 0.02403
0.01372 -0.0201 0.05783 -0.0 -0.02298 -0.05215 -0.1124 0.02036
0.004498 -7e-07 0.04373 0.02158 -0.0278 -0.001894 0.1018 -0.0
0.02104 -0.01176 0.01469 0.0 -0.0758 -0.06616 -0.03123 0.007683
0.04922 -0.05383 -0.02415 -0.0 -0.0 -0.07825 -0.00629 0.07104
0.01272 0.07776 -0.03964 0.0 0.07947 0.07355 -0.04108 -0.09204
0.00555 6e-07 0.07477 -0.0398 -0.001749 -0.096 0.02985 0.0
0.0305 -0.01814 -0.00031 0.0 -0.062 -0.02756 -0.010605 0.1163
-0.03848 -0.07306 -0.04285 -0.0 -0.0 -0.06946 0.04794 -0.1061
-0.0489 -0.04016 0.0056 0.0 0.00963 0.0574 0.0339 0.04636
-0.0763 2e-07 -0.0629 0.03006 -0.014175 0.05444 0.002262 0.0
0.02327 -0.0691 -0.003258 0.0 0.02502 -0.04248 0.0787 0.0705
-0.0639 0.000999 -0.01729 -0.0 0.0 -0.06006 0.044 0.03128
-0.05698 0.06158 0.0959 0.0 -0.06287 -0.0721 -0.06573 -0.009254
